…
Some weights of GPTJForSequenceClassification were not initialized from the model checkpoint at /gpfsdswork/dataset/HuggingFace_Models/EleutherAI/gpt-j-6B and are newly initialized: ['score.weight']
You should probably TRAIN this model on a down-stream task to be able to use it for predictions and inference.
Some weights of GPTJForSequenceClassification were not initialized from the model checkpoint at /gpfsdswork/dataset/HuggingFace_Models/EleutherAI/gpt-j-6B and are newly initialized: ['score.weight']
You should probably TRAIN this model on a down-stream task to be able to use it for predictions and inference.
DistributedDataParallel(
  (module): GPTJForSequenceClassification(
    (transformer): GPTJModel(
      (wte): Embedding(50400, 4096)
      (drop): Dropout(p=0.0, inplace=False)
      (h): ModuleList(
        (0-27): 28 x GPTJBlock(
          (ln_1): LayerNorm((4096,), eps=1e-05, elementwise_affine=True)
          (attn): GPTJAttention(
            (attn_dropout): Dropout(p=0.0, inplace=False)
            (resid_dropout): Dropout(p=0.0, inplace=False)
            (k_proj): Linear(in_features=4096, out_features=4096, bias=False)
            (v_proj): Linear(in_features=4096, out_features=4096, bias=False)
            (q_proj): Linear(in_features=4096, out_features=4096, bias=False)
            (out_proj): Linear(in_features=4096, out_features=4096, bias=False)
          )
          (mlp): GPTJMLP(
            (fc_in): Linear(in_features=4096, out_features=16384, bias=True)
            (fc_out): Linear(in_features=16384, out_features=4096, bias=True)
            (act): NewGELUActivation()
            (dropout): Dropout(p=0.0, inplace=False)
          )
        )
      )
      (ln_f): LayerNorm((4096,), eps=1e-05, elementwise_affine=True)
    )
    (score): Linear(in_features=4096, out_features=10, bias=False)
  )
)

 EleutherAI/gpt-j-6B Model Loaded from directory LEGAL-P_E/SIGIR_experiments/finetuned_models/ecthr_a/EleutherAI_gpt-j-6B/Strategy_1/sub_strategy_0/ZeRO3_epoch_1__final/pytorch_model.bin
DistributedDataParallel(
  (module): GPTJForSequenceClassification(
    (transformer): GPTJModel(
      (wte): Embedding(50400, 4096)
      (drop): Dropout(p=0.0, inplace=False)
      (h): ModuleList(
        (0-27): 28 x GPTJBlock(
          (ln_1): LayerNorm((4096,), eps=1e-05, elementwise_affine=True)
          (attn): GPTJAttention(
            (attn_dropout): Dropout(p=0.0, inplace=False)
            (resid_dropout): Dropout(p=0.0, inplace=False)
            (k_proj): Linear(in_features=4096, out_features=4096, bias=False)
            (v_proj): Linear(in_features=4096, out_features=4096, bias=False)
            (q_proj): Linear(in_features=4096, out_features=4096, bias=False)
            (out_proj): Linear(in_features=4096, out_features=4096, bias=False)
          )
          (mlp): GPTJMLP(
            (fc_in): Linear(in_features=4096, out_features=16384, bias=True)
            (fc_out): Linear(in_features=16384, out_features=4096, bias=True)
            (act): NewGELUActivation()
            (dropout): Dropout(p=0.0, inplace=False)
          )
        )
      )
      (ln_f): LayerNorm((4096,), eps=1e-05, elementwise_affine=True)
    )
    (score): Linear(in_features=4096, out_features=10, bias=False)
  )
)

 EleutherAI/gpt-j-6B Model Loaded from directory LEGAL-P_E/SIGIR_experiments/finetuned_models/ecthr_a/EleutherAI_gpt-j-6B/Strategy_1/sub_strategy_0/ZeRO3_epoch_1__final/pytorch_model.bin
DistributedDataParallel(
  (module): GPTJForSequenceClassification(
    (transformer): GPTJModel(
      (wte): Embedding(50400, 4096)
      (drop): Dropout(p=0.0, inplace=False)
      (h): ModuleList(
        (0-27): 28 x GPTJBlock(
          (ln_1): LayerNorm((4096,), eps=1e-05, elementwise_affine=True)
          (attn): GPTJAttention(
            (attn_dropout): Dropout(p=0.0, inplace=False)
            (resid_dropout): Dropout(p=0.0, inplace=False)
            (k_proj): Linear(in_features=4096, out_features=4096, bias=False)
            (v_proj): Linear(in_features=4096, out_features=4096, bias=False)
            (q_proj): Linear(in_features=4096, out_features=4096, bias=False)
            (out_proj): Linear(in_features=4096, out_features=4096, bias=False)
          )
          (mlp): GPTJMLP(
            (fc_in): Linear(in_features=4096, out_features=16384, bias=True)
            (fc_out): Linear(in_features=16384, out_features=4096, bias=True)
            (act): NewGELUActivation()
            (dropout): Dropout(p=0.0, inplace=False)
          )
        )
      )
      (ln_f): LayerNorm((4096,), eps=1e-05, elementwise_affine=True)
    )
    (score): Linear(in_features=4096, out_features=10, bias=False)
  )
)
DistributedDataParallel(
  (module): GPTJForSequenceClassification(
    (transformer): GPTJModel(
      (wte): Embedding(50400, 4096)
      (drop): Dropout(p=0.0, inplace=False)
      (h): ModuleList(
        (0-27): 28 x GPTJBlock(
          (ln_1): LayerNorm((4096,), eps=1e-05, elementwise_affine=True)
          (attn): GPTJAttention(
            (attn_dropout): Dropout(p=0.0, inplace=False)
            (resid_dropout): Dropout(p=0.0, inplace=False)
            (k_proj): Linear(in_features=4096, out_features=4096, bias=False)
            (v_proj): Linear(in_features=4096, out_features=4096, bias=False)
            (q_proj): Linear(in_features=4096, out_features=4096, bias=False)
            (out_proj): Linear(in_features=4096, out_features=4096, bias=False)
          )
          (mlp): GPTJMLP(
            (fc_in): Linear(in_features=4096, out_features=16384, bias=True)
            (fc_out): Linear(in_features=16384, out_features=4096, bias=True)
            (act): NewGELUActivation()
            (dropout): Dropout(p=0.0, inplace=False)
          )
        )
      )
      (ln_f): LayerNorm((4096,), eps=1e-05, elementwise_affine=True)
    )
    (score): Linear(in_features=4096, out_features=10, bias=False)
  )
)
 EleutherAI/gpt-j-6B Model Loaded from directory LEGAL-P_E/SIGIR_experiments/finetuned_models/ecthr_a/EleutherAI_gpt-j-6B/Strategy_1/sub_strategy_0/ZeRO3_epoch_1__final/pytorch_model.bin


 EleutherAI/gpt-j-6B Model Loaded from directory LEGAL-P_E/SIGIR_experiments/finetuned_models/ecthr_a/EleutherAI_gpt-j-6B/Strategy_1/sub_strategy_0/ZeRO3_epoch_1__final/pytorch_model.bin
DistributedDataParallel(
  (module): GPTJForSequenceClassification(
    (transformer): GPTJModel(
      (wte): Embedding(50400, 4096)
      (drop): Dropout(p=0.0, inplace=False)
      (h): ModuleList(
        (0-27): 28 x GPTJBlock(
          (ln_1): LayerNorm((4096,), eps=1e-05, elementwise_affine=True)
          (attn): GPTJAttention(
            (attn_dropout): Dropout(p=0.0, inplace=False)
            (resid_dropout): Dropout(p=0.0, inplace=False)
            (k_proj): Linear(in_features=4096, out_features=4096, bias=False)
            (v_proj): Linear(in_features=4096, out_features=4096, bias=False)
            (q_proj): Linear(in_features=4096, out_features=4096, bias=False)
            (out_proj): Linear(in_features=4096, out_features=4096, bias=False)
          )
          (mlp): GPTJMLP(
            (fc_in): Linear(in_features=4096, out_features=16384, bias=True)
            (fc_out): Linear(in_features=16384, out_features=4096, bias=True)
            (act): NewGELUActivation()
            (dropout): Dropout(p=0.0, inplace=False)
          )
        )
      )
      (ln_f): LayerNorm((4096,), eps=1e-05, elementwise_affine=True)
    )
    (score): Linear(in_features=4096, out_features=10, bias=False)
  )
)DistributedDataParallel(
  (module): GPTJForSequenceClassification(
    (transformer): GPTJModel(
      (wte): Embedding(50400, 4096)
      (drop): Dropout(p=0.0, inplace=False)
      (h): ModuleList(
        (0-27): 28 x GPTJBlock(
          (ln_1): LayerNorm((4096,), eps=1e-05, elementwise_affine=True)
          (attn): GPTJAttention(
            (attn_dropout): Dropout(p=0.0, inplace=False)
            (resid_dropout): Dropout(p=0.0, inplace=False)
            (k_proj): Linear(in_features=4096, out_features=4096, bias=False)
            (v_proj): Linear(in_features=4096, out_features=4096, bias=False)
            (q_proj): Linear(in_features=4096, out_features=4096, bias=False)
            (out_proj): Linear(in_features=4096, out_features=4096, bias=False)
          )
          (mlp): GPTJMLP(
            (fc_in): Linear(in_features=4096, out_features=16384, bias=True)
            (fc_out): Linear(in_features=16384, out_features=4096, bias=True)
            (act): NewGELUActivation()
            (dropout): Dropout(p=0.0, inplace=False)
          )
        )
      )
      (ln_f): LayerNorm((4096,), eps=1e-05, elementwise_affine=True)
    )
    (score): Linear(in_features=4096, out_features=10, bias=False)
  )
)


 EleutherAI/gpt-j-6B Model Loaded from directory LEGAL-P_E/SIGIR_experiments/finetuned_models/ecthr_a/EleutherAI_gpt-j-6B/Strategy_1/sub_strategy_0/ZeRO3_epoch_1__final/pytorch_model.bin
 EleutherAI/gpt-j-6B Model Loaded from directory LEGAL-P_E/SIGIR_experiments/finetuned_models/ecthr_a/EleutherAI_gpt-j-6B/Strategy_1/sub_strategy_0/ZeRO3_epoch_1__final/pytorch_model.bin
…
