…
Some weights of GPTNeoForSequenceClassification were not initialized from the model checkpoint at /gpfsdswork/dataset/HuggingFace_Models/EleutherAI/gpt-neo-1.3B and are newly initialized: ['score.weight']
You should probably TRAIN this model on a down-stream task to be able to use it for predictions and inference.
Some weights of GPTNeoForSequenceClassification were not initialized from the model checkpoint at /gpfsdswork/dataset/HuggingFace_Models/EleutherAI/gpt-neo-1.3B and are newly initialized: ['score.weight']
You should probably TRAIN this model on a down-stream task to be able to use it for predictions and inference.
DistributedDataParallel(
  (module): GPTNeoForSequenceClassification(
    (transformer): GPTNeoModel(
      (wte): Embedding(50257, 2048)
      (wpe): Embedding(2048, 2048)
      (drop): Dropout(p=0.0, inplace=False)
      (h): ModuleList(
        (0-23): 24 x GPTNeoBlock(
          (ln_1): LayerNorm((2048,), eps=1e-05, elementwise_affine=True)
          (attn): GPTNeoAttention(
            (attention): GPTNeoSelfAttention(
              (attn_dropout): Dropout(p=0.0, inplace=False)
              (resid_dropout): Dropout(p=0.0, inplace=False)
              (k_proj): Linear(in_features=2048, out_features=2048, bias=False)
              (v_proj): Linear(in_features=2048, out_features=2048, bias=False)
              (q_proj): Linear(in_features=2048, out_features=2048, bias=False)
              (out_proj): Linear(in_features=2048, out_features=2048, bias=True)
            )
          )
          (ln_2): LayerNorm((2048,), eps=1e-05, elementwise_affine=True)
          (mlp): GPTNeoMLP(
            (c_fc): Linear(in_features=2048, out_features=8192, bias=True)
            (c_proj): Linear(in_features=8192, out_features=2048, bias=True)
            (act): NewGELUActivation()
            (dropout): Dropout(p=0.0, inplace=False)
          )
        )
      )
      (ln_f): LayerNorm((2048,), eps=1e-05, elementwise_affine=True)
    )
    (score): Linear(in_features=2048, out_features=2, bias=False)
  )
)

 EleutherAI/gpt-neo-1.3B Model Loaded from directory LEGAL-P_E/SIGIR_experiments/finetuned_models/ildc/EleutherAI_gpt-neo-1.3B/Strategy_1/sub_strategy_0/epoch_0/torch_model_with_32fp_wrapper.pth
DistributedDataParallel(
  (module): GPTNeoForSequenceClassification(
    (transformer): GPTNeoModel(
      (wte): Embedding(50257, 2048)
      (wpe): Embedding(2048, 2048)
      (drop): Dropout(p=0.0, inplace=False)
      (h): ModuleList(
        (0-23): 24 x GPTNeoBlock(
          (ln_1): LayerNorm((2048,), eps=1e-05, elementwise_affine=True)
          (attn): GPTNeoAttention(
            (attention): GPTNeoSelfAttention(
              (attn_dropout): Dropout(p=0.0, inplace=False)
              (resid_dropout): Dropout(p=0.0, inplace=False)
              (k_proj): Linear(in_features=2048, out_features=2048, bias=False)
              (v_proj): Linear(in_features=2048, out_features=2048, bias=False)
              (q_proj): Linear(in_features=2048, out_features=2048, bias=False)
              (out_proj): Linear(in_features=2048, out_features=2048, bias=True)
            )
          )
          (ln_2): LayerNorm((2048,), eps=1e-05, elementwise_affine=True)
          (mlp): GPTNeoMLP(
            (c_fc): Linear(in_features=2048, out_features=8192, bias=True)
            (c_proj): Linear(in_features=8192, out_features=2048, bias=True)
            (act): NewGELUActivation()
            (dropout): Dropout(p=0.0, inplace=False)
          )
        )
      )
      (ln_f): LayerNorm((2048,), eps=1e-05, elementwise_affine=True)
    )
    (score): Linear(in_features=2048, out_features=2, bias=False)
  )
)
DistributedDataParallel(
  (module): GPTNeoForSequenceClassification(
    (transformer): GPTNeoModel(
      (wte): Embedding(50257, 2048)
      (wpe): Embedding(2048, 2048)
      (drop): Dropout(p=0.0, inplace=False)
      (h): ModuleList(
        (0-23): 24 x GPTNeoBlock(
          (ln_1): LayerNorm((2048,), eps=1e-05, elementwise_affine=True)
          (attn): GPTNeoAttention(
            (attention): GPTNeoSelfAttention(
              (attn_dropout): Dropout(p=0.0, inplace=False)
              (resid_dropout): Dropout(p=0.0, inplace=False)
              (k_proj): Linear(in_features=2048, out_features=2048, bias=False)
              (v_proj): Linear(in_features=2048, out_features=2048, bias=False)
              (q_proj): Linear(in_features=2048, out_features=2048, bias=False)
              (out_proj): Linear(in_features=2048, out_features=2048, bias=True)
            )
          )
          (ln_2): LayerNorm((2048,), eps=1e-05, elementwise_affine=True)
          (mlp): GPTNeoMLP(
            (c_fc): Linear(in_features=2048, out_features=8192, bias=True)
            (c_proj): Linear(in_features=8192, out_features=2048, bias=True)
            (act): NewGELUActivation()
            (dropout): Dropout(p=0.0, inplace=False)
          )
        )
      )
      (ln_f): LayerNorm((2048,), eps=1e-05, elementwise_affine=True)
    )
    (score): Linear(in_features=2048, out_features=2, bias=False)
  )
)
 EleutherAI/gpt-neo-1.3B Model Loaded from directory LEGAL-P_E/SIGIR_experiments/finetuned_models/ildc/EleutherAI_gpt-neo-1.3B/Strategy_1/sub_strategy_0/epoch_0/torch_model_with_32fp_wrapper.pth


 EleutherAI/gpt-neo-1.3B Model Loaded from directory LEGAL-P_E/SIGIR_experiments/finetuned_models/ildc/EleutherAI_gpt-neo-1.3B/Strategy_1/sub_strategy_0/epoch_0/torch_model_with_32fp_wrapper.pth
DistributedDataParallel(
  (module): GPTNeoForSequenceClassification(
    (transformer): GPTNeoModel(
      (wte): Embedding(50257, 2048)
      (wpe): Embedding(2048, 2048)
      (drop): Dropout(p=0.0, inplace=False)
      (h): ModuleList(
        (0-23): 24 x GPTNeoBlock(
          (ln_1): LayerNorm((2048,), eps=1e-05, elementwise_affine=True)
          (attn): GPTNeoAttention(
            (attention): GPTNeoSelfAttention(
              (attn_dropout): Dropout(p=0.0, inplace=False)
              (resid_dropout): Dropout(p=0.0, inplace=False)
              (k_proj): Linear(in_features=2048, out_features=2048, bias=False)
              (v_proj): Linear(in_features=2048, out_features=2048, bias=False)
              (q_proj): Linear(in_features=2048, out_features=2048, bias=False)
              (out_proj): Linear(in_features=2048, out_features=2048, bias=True)
            )
          )
          (ln_2): LayerNorm((2048,), eps=1e-05, elementwise_affine=True)
          (mlp): GPTNeoMLP(
            (c_fc): Linear(in_features=2048, out_features=8192, bias=True)
            (c_proj): Linear(in_features=8192, out_features=2048, bias=True)
            (act): NewGELUActivation()
            (dropout): Dropout(p=0.0, inplace=False)
          )
        )
      )
      (ln_f): LayerNorm((2048,), eps=1e-05, elementwise_affine=True)
    )
    (score): Linear(in_features=2048, out_features=2, bias=False)
  )
)

 EleutherAI/gpt-neo-1.3B Model Loaded from directory LEGAL-P_E/SIGIR_experiments/finetuned_models/ildc/EleutherAI_gpt-neo-1.3B/Strategy_1/sub_strategy_0/epoch_0/torch_model_with_32fp_wrapper.pth
DistributedDataParallel(
  (module): GPTNeoForSequenceClassification(
    (transformer): GPTNeoModel(
      (wte): Embedding(50257, 2048)
      (wpe): Embedding(2048, 2048)
      (drop): Dropout(p=0.0, inplace=False)
      (h): ModuleList(
        (0-23): 24 x GPTNeoBlock(
          (ln_1): LayerNorm((2048,), eps=1e-05, elementwise_affine=True)
          (attn): GPTNeoAttention(
            (attention): GPTNeoSelfAttention(
              (attn_dropout): Dropout(p=0.0, inplace=False)
              (resid_dropout): Dropout(p=0.0, inplace=False)
              (k_proj): Linear(in_features=2048, out_features=2048, bias=False)
              (v_proj): Linear(in_features=2048, out_features=2048, bias=False)
              (q_proj): Linear(in_features=2048, out_features=2048, bias=False)
              (out_proj): Linear(in_features=2048, out_features=2048, bias=True)
            )
          )
          (ln_2): LayerNorm((2048,), eps=1e-05, elementwise_affine=True)
          (mlp): GPTNeoMLP(
            (c_fc): Linear(in_features=2048, out_features=8192, bias=True)
            (c_proj): Linear(in_features=8192, out_features=2048, bias=True)
            (act): NewGELUActivation()
            (dropout): Dropout(p=0.0, inplace=False)
          )
        )
      )
      (ln_f): LayerNorm((2048,), eps=1e-05, elementwise_affine=True)
    )
    (score): Linear(in_features=2048, out_features=2, bias=False)
  )
)

 EleutherAI/gpt-neo-1.3B Model Loaded from directory LEGAL-P_E/SIGIR_experiments/finetuned_models/ildc/EleutherAI_gpt-neo-1.3B/Strategy_1/sub_strategy_0/epoch_0/torch_model_with_32fp_wrapper.pth
DistributedDataParallel(
  (module): GPTNeoForSequenceClassification(
    (transformer): GPTNeoModel(
      (wte): Embedding(50257, 2048)
      (wpe): Embedding(2048, 2048)
      (drop): Dropout(p=0.0, inplace=False)
      (h): ModuleList(
        (0-23): 24 x GPTNeoBlock(
          (ln_1): LayerNorm((2048,), eps=1e-05, elementwise_affine=True)
          (attn): GPTNeoAttention(
            (attention): GPTNeoSelfAttention(
              (attn_dropout): Dropout(p=0.0, inplace=False)
              (resid_dropout): Dropout(p=0.0, inplace=False)
              (k_proj): Linear(in_features=2048, out_features=2048, bias=False)
              (v_proj): Linear(in_features=2048, out_features=2048, bias=False)
              (q_proj): Linear(in_features=2048, out_features=2048, bias=False)
              (out_proj): Linear(in_features=2048, out_features=2048, bias=True)
            )
          )
          (ln_2): LayerNorm((2048,), eps=1e-05, elementwise_affine=True)
          (mlp): GPTNeoMLP(
            (c_fc): Linear(in_features=2048, out_features=8192, bias=True)
            (c_proj): Linear(in_features=8192, out_features=2048, bias=True)
            (act): NewGELUActivation()
            (dropout): Dropout(p=0.0, inplace=False)
          )
        )
      )
      (ln_f): LayerNorm((2048,), eps=1e-05, elementwise_affine=True)
    )
    (score): Linear(in_features=2048, out_features=2, bias=False)
  )
)

 EleutherAI/gpt-neo-1.3B Model Loaded from directory LEGAL-P_E/SIGIR_experiments/finetuned_models/ildc/EleutherAI_gpt-neo-1.3B/Strategy_1/sub_strategy_0/epoch_0/torch_model_with_32fp_wrapper.pth
  0%|          | 0/12462 [00:00<?, ?it/s]  0%|          | 0/12462 [00:00<?, ?it/s]  0%|          | 0/12462 [00:00<?, ?it/s]  0%|          | 0/12462 [00:00<?, ?it/s]  0%|          | 0/12462 [00:00<?, ?it/s]  0%|          | 0/12462 [00:00<?, ?it/s]Token indices sequence length is longer than the specified maximum sequence length for this model (2826 > 2048). Running this sequence through the model will result in indexing errors
…
