…
Tokenizer Loaded{'bos_token': '<|endoftext|>', 'eos_token': '<|endoftext|>', 'unk_token': '<|endoftext|>', 'pad_token': '<|endoftext|>'}
{'bos_token': '<|endoftext|>', 'eos_token': '<|endoftext|>', 'unk_token': '<|endoftext|>', 'pad_token': '<|endoftext|>'}

{'bos_token': '<|endoftext|>', 'eos_token': '<|endoftext|>', 'unk_token': '<|endoftext|>', 'pad_token': '<|endoftext|>'}
Tokenizer Loaded
{'bos_token': '<|endoftext|>', 'eos_token': '<|endoftext|>', 'unk_token': '<|endoftext|>', 'pad_token': '<|endoftext|>'}
Tokenizer Loaded


Tokenizer Loaded


Tokenizer Loaded

Tokenizer Loaded

DistributedDataParallel(
  (module): GPTNeoForSequenceClassification(
    (transformer): GPTNeoModel(
      (wte): Embedding(50257, 2560)
      (wpe): Embedding(2048, 2560)
      (drop): Dropout(p=0.0, inplace=False)
      (h): ModuleList(
        (0-31): 32 x GPTNeoBlock(
          (ln_1): LayerNorm((2560,), eps=1e-05, elementwise_affine=True)
          (attn): GPTNeoAttention(
            (attention): GPTNeoSelfAttention(
              (attn_dropout): Dropout(p=0.0, inplace=False)
              (resid_dropout): Dropout(p=0.0, inplace=False)
              (k_proj): Linear(in_features=2560, out_features=2560, bias=False)
              (v_proj): Linear(in_features=2560, out_features=2560, bias=False)
              (q_proj): Linear(in_features=2560, out_features=2560, bias=False)
              (out_proj): Linear(in_features=2560, out_features=2560, bias=True)
            )
          )
          (ln_2): LayerNorm((2560,), eps=1e-05, elementwise_affine=True)
          (mlp): GPTNeoMLP(
            (c_fc): Linear(in_features=2560, out_features=10240, bias=True)
            (c_proj): Linear(in_features=10240, out_features=2560, bias=True)
            (act): NewGELUActivation()
            (dropout): Dropout(p=0.0, inplace=False)
          )
        )
      )
      (ln_f): LayerNorm((2560,), eps=1e-05, elementwise_affine=True)
    )
    (score): Linear(in_features=2560, out_features=2, bias=False)
  )
)
DistributedDataParallel(
  (module): GPTNeoForSequenceClassification(
    (transformer): GPTNeoModel(
      (wte): Embedding(50257, 2560)
      (wpe): Embedding(2048, 2560)
      (drop): Dropout(p=0.0, inplace=False)
      (h): ModuleList(
        (0-31): 32 x GPTNeoBlock(
          (ln_1): LayerNorm((2560,), eps=1e-05, elementwise_affine=True)
          (attn): GPTNeoAttention(
            (attention): GPTNeoSelfAttention(
              (attn_dropout): Dropout(p=0.0, inplace=False)
              (resid_dropout): Dropout(p=0.0, inplace=False)
              (k_proj): Linear(in_features=2560, out_features=2560, bias=False)
              (v_proj): Linear(in_features=2560, out_features=2560, bias=False)
              (q_proj): Linear(in_features=2560, out_features=2560, bias=False)
              (out_proj): Linear(in_features=2560, out_features=2560, bias=True)
            )
          )
          (ln_2): LayerNorm((2560,), eps=1e-05, elementwise_affine=True)
          (mlp): GPTNeoMLP(
            (c_fc): Linear(in_features=2560, out_features=10240, bias=True)
            (c_proj): Linear(in_features=10240, out_features=2560, bias=True)
            (act): NewGELUActivation()
            (dropout): Dropout(p=0.0, inplace=False)
          )
        )
      )
      (ln_f): LayerNorm((2560,), eps=1e-05, elementwise_affine=True)
    )
    (score): Linear(in_features=2560, out_features=2, bias=False)
  )
)
DistributedDataParallel(
  (module): GPTNeoForSequenceClassification(
    (transformer): GPTNeoModel(
      (wte): Embedding(50257, 2560)
      (wpe): Embedding(2048, 2560)
      (drop): Dropout(p=0.0, inplace=False)
      (h): ModuleList(
        (0-31): 32 x GPTNeoBlock(
          (ln_1): LayerNorm((2560,), eps=1e-05, elementwise_affine=True)
          (attn): GPTNeoAttention(
            (attention): GPTNeoSelfAttention(
              (attn_dropout): Dropout(p=0.0, inplace=False)
              (resid_dropout): Dropout(p=0.0, inplace=False)
              (k_proj): Linear(in_features=2560, out_features=2560, bias=False)
              (v_proj): Linear(in_features=2560, out_features=2560, bias=False)
              (q_proj): Linear(in_features=2560, out_features=2560, bias=False)
              (out_proj): Linear(in_features=2560, out_features=2560, bias=True)
            )
          )
          (ln_2): LayerNorm((2560,), eps=1e-05, elementwise_affine=True)
          (mlp): GPTNeoMLP(
            (c_fc): Linear(in_features=2560, out_features=10240, bias=True)
            (c_proj): Linear(in_features=10240, out_features=2560, bias=True)
            (act): NewGELUActivation()
            (dropout): Dropout(p=0.0, inplace=False)
          )
        )
      )
      (ln_f): LayerNorm((2560,), eps=1e-05, elementwise_affine=True)
    )
    (score): Linear(in_features=2560, out_features=2, bias=False)
  )
)
 EleutherAI/gpt-neo-2.7B Model Loaded from directory LEGAL-P_E/SIGIR_experiments/finetuned_models/ildc/EleutherAI_gpt-neo-2.7B/Strategy_1/sub_strategy_0/epoch_0/torch_model_with_32fp_wrapper.pth
 EleutherAI/gpt-neo-2.7B Model Loaded from directory LEGAL-P_E/SIGIR_experiments/finetuned_models/ildc/EleutherAI_gpt-neo-2.7B/Strategy_1/sub_strategy_0/epoch_0/torch_model_with_32fp_wrapper.pth
DistributedDataParallel(
  (module): GPTNeoForSequenceClassification(
    (transformer): GPTNeoModel(
      (wte): Embedding(50257, 2560)
      (wpe): Embedding(2048, 2560)
      (drop): Dropout(p=0.0, inplace=False)
      (h): ModuleList(
        (0-31): 32 x GPTNeoBlock(
          (ln_1): LayerNorm((2560,), eps=1e-05, elementwise_affine=True)
          (attn): GPTNeoAttention(
            (attention): GPTNeoSelfAttention(
              (attn_dropout): Dropout(p=0.0, inplace=False)
              (resid_dropout): Dropout(p=0.0, inplace=False)
              (k_proj): Linear(in_features=2560, out_features=2560, bias=False)
              (v_proj): Linear(in_features=2560, out_features=2560, bias=False)
              (q_proj): Linear(in_features=2560, out_features=2560, bias=False)
              (out_proj): Linear(in_features=2560, out_features=2560, bias=True)
            )
          )
          (ln_2): LayerNorm((2560,), eps=1e-05, elementwise_affine=True)
          (mlp): GPTNeoMLP(
            (c_fc): Linear(in_features=2560, out_features=10240, bias=True)
            (c_proj): Linear(in_features=10240, out_features=2560, bias=True)
            (act): NewGELUActivation()
            (dropout): Dropout(p=0.0, inplace=False)
          )
        )
      )
      (ln_f): LayerNorm((2560,), eps=1e-05, elementwise_affine=True)
    )
    (score): Linear(in_features=2560, out_features=2, bias=False)
  )
)


 EleutherAI/gpt-neo-2.7B Model Loaded from directory LEGAL-P_E/SIGIR_experiments/finetuned_models/ildc/EleutherAI_gpt-neo-2.7B/Strategy_1/sub_strategy_0/epoch_0/torch_model_with_32fp_wrapper.pthDistributedDataParallel(
  (module): GPTNeoForSequenceClassification(
    (transformer): GPTNeoModel(
      (wte): Embedding(50257, 2560)
      (wpe): Embedding(2048, 2560)
      (drop): Dropout(p=0.0, inplace=False)
      (h): ModuleList(
        (0-31): 32 x GPTNeoBlock(
          (ln_1): LayerNorm((2560,), eps=1e-05, elementwise_affine=True)
          (attn): GPTNeoAttention(
            (attention): GPTNeoSelfAttention(
              (attn_dropout): Dropout(p=0.0, inplace=False)
              (resid_dropout): Dropout(p=0.0, inplace=False)
              (k_proj): Linear(in_features=2560, out_features=2560, bias=False)
              (v_proj): Linear(in_features=2560, out_features=2560, bias=False)
              (q_proj): Linear(in_features=2560, out_features=2560, bias=False)
              (out_proj): Linear(in_features=2560, out_features=2560, bias=True)
            )
          )
          (ln_2): LayerNorm((2560,), eps=1e-05, elementwise_affine=True)
          (mlp): GPTNeoMLP(
            (c_fc): Linear(in_features=2560, out_features=10240, bias=True)
            (c_proj): Linear(in_features=10240, out_features=2560, bias=True)
            (act): NewGELUActivation()
            (dropout): Dropout(p=0.0, inplace=False)
          )
        )
      )
      (ln_f): LayerNorm((2560,), eps=1e-05, elementwise_affine=True)
    )
    (score): Linear(in_features=2560, out_features=2, bias=False)
  )
)


DistributedDataParallel(
  (module): GPTNeoForSequenceClassification(
    (transformer): GPTNeoModel(
      (wte): Embedding(50257, 2560)
      (wpe): Embedding(2048, 2560)
      (drop): Dropout(p=0.0, inplace=False)
      (h): ModuleList(
        (0-31): 32 x GPTNeoBlock(
          (ln_1): LayerNorm((2560,), eps=1e-05, elementwise_affine=True)
          (attn): GPTNeoAttention(
            (attention): GPTNeoSelfAttention(
              (attn_dropout): Dropout(p=0.0, inplace=False)
              (resid_dropout): Dropout(p=0.0, inplace=False)
              (k_proj): Linear(in_features=2560, out_features=2560, bias=False)
              (v_proj): Linear(in_features=2560, out_features=2560, bias=False)
              (q_proj): Linear(in_features=2560, out_features=2560, bias=False)
              (out_proj): Linear(in_features=2560, out_features=2560, bias=True)
            )
          )
          (ln_2): LayerNorm((2560,), eps=1e-05, elementwise_affine=True)
          (mlp): GPTNeoMLP(
            (c_fc): Linear(in_features=2560, out_features=10240, bias=True)
            (c_proj): Linear(in_features=10240, out_features=2560, bias=True)
            (act): NewGELUActivation()
            (dropout): Dropout(p=0.0, inplace=False)
          )
        )
      )
      (ln_f): LayerNorm((2560,), eps=1e-05, elementwise_affine=True)
    )
    (score): Linear(in_features=2560, out_features=2, bias=False)
  )
)
 EleutherAI/gpt-neo-2.7B Model Loaded from directory LEGAL-P_E/SIGIR_experiments/finetuned_models/ildc/EleutherAI_gpt-neo-2.7B/Strategy_1/sub_strategy_0/epoch_0/torch_model_with_32fp_wrapper.pth
 EleutherAI/gpt-neo-2.7B Model Loaded from directory LEGAL-P_E/SIGIR_experiments/finetuned_models/ildc/EleutherAI_gpt-neo-2.7B/Strategy_1/sub_strategy_0/epoch_0/torch_model_with_32fp_wrapper.pth
…
