…
Loading EleutherAI/gpt-j-6B model and tokenizer

Loading EleutherAI/gpt-j-6B model and tokenizer
{'bos_token': '<|endoftext|>', 'eos_token': '<|endoftext|>', 'unk_token': '<|endoftext|>', 'pad_token': '<|endoftext|>'}

Tokenizer Loaded
{'bos_token': '<|endoftext|>', 'eos_token': '<|endoftext|>', 'unk_token': '<|endoftext|>', 'pad_token': '<|endoftext|>'}

Tokenizer Loaded
{'bos_token': '<|endoftext|>', 'eos_token': '<|endoftext|>', 'unk_token': '<|endoftext|>', 'pad_token': '<|endoftext|>'}

Tokenizer Loaded
DistributedDataParallel(
  (module): GPTJForSequenceClassification(
    (transformer): GPTJModel(
      (wte): Embedding(50400, 4096)
      (drop): Dropout(p=0.0, inplace=False)
      (h): ModuleList(
        (0-27): 28 x GPTJBlock(
          (ln_1): LayerNorm((4096,), eps=1e-05, elementwise_affine=True)
          (attn): GPTJAttention(
            (attn_dropout): Dropout(p=0.0, inplace=False)
            (resid_dropout): Dropout(p=0.0, inplace=False)
            (k_proj): Linear(in_features=4096, out_features=4096, bias=False)
            (v_proj): Linear(in_features=4096, out_features=4096, bias=False)
            (q_proj): Linear(in_features=4096, out_features=4096, bias=False)
            (out_proj): Linear(in_features=4096, out_features=4096, bias=False)
          )
          (mlp): GPTJMLP(
            (fc_in): Linear(in_features=4096, out_features=16384, bias=True)
            (fc_out): Linear(in_features=16384, out_features=4096, bias=True)
            (act): NewGELUActivation()
            (dropout): Dropout(p=0.0, inplace=False)
          )
        )
      )
      (ln_f): LayerNorm((4096,), eps=1e-05, elementwise_affine=True)
    )
    (score): Linear(in_features=4096, out_features=13, bias=False)
  )
)
DistributedDataParallel(
  (module): GPTJForSequenceClassification(
    (transformer): GPTJModel(
      (wte): Embedding(50400, 4096)
      (drop): Dropout(p=0.0, inplace=False)
      (h): ModuleList(
        (0-27): 28 x GPTJBlock(
          (ln_1): LayerNorm((4096,), eps=1e-05, elementwise_affine=True)
          (attn): GPTJAttention(
            (attn_dropout): Dropout(p=0.0, inplace=False)
            (resid_dropout): Dropout(p=0.0, inplace=False)
            (k_proj): Linear(in_features=4096, out_features=4096, bias=False)
            (v_proj): Linear(in_features=4096, out_features=4096, bias=False)
            (q_proj): Linear(in_features=4096, out_features=4096, bias=False)
            (out_proj): Linear(in_features=4096, out_features=4096, bias=False)
          )
          (mlp): GPTJMLP(
            (fc_in): Linear(in_features=4096, out_features=16384, bias=True)
            (fc_out): Linear(in_features=16384, out_features=4096, bias=True)
            (act): NewGELUActivation()
            (dropout): Dropout(p=0.0, inplace=False)
          )
        )
      )
      (ln_f): LayerNorm((4096,), eps=1e-05, elementwise_affine=True)
    )
    (score): Linear(in_features=4096, out_features=13, bias=False)
  )
)
DistributedDataParallel(
  (module): GPTJForSequenceClassification(
    (transformer): GPTJModel(
      (wte): Embedding(50400, 4096)
      (drop): Dropout(p=0.0, inplace=False)
      (h): ModuleList(
        (0-27): 28 x GPTJBlock(
          (ln_1): LayerNorm((4096,), eps=1e-05, elementwise_affine=True)
          (attn): GPTJAttention(
            (attn_dropout): Dropout(p=0.0, inplace=False)
            (resid_dropout): Dropout(p=0.0, inplace=False)
            (k_proj): Linear(in_features=4096, out_features=4096, bias=False)
            (v_proj): Linear(in_features=4096, out_features=4096, bias=False)
            (q_proj): Linear(in_features=4096, out_features=4096, bias=False)
            (out_proj): Linear(in_features=4096, out_features=4096, bias=False)
          )
          (mlp): GPTJMLP(
            (fc_in): Linear(in_features=4096, out_features=16384, bias=True)
            (fc_out): Linear(in_features=16384, out_features=4096, bias=True)
            (act): NewGELUActivation()
            (dropout): Dropout(p=0.0, inplace=False)
          )
        )
      )
      (ln_f): LayerNorm((4096,), eps=1e-05, elementwise_affine=True)
    )
    (score): Linear(in_features=4096, out_features=13, bias=False)
  )
)
 EleutherAI/gpt-j-6B Model Loaded from directory LEGAL-P_E/SIGIR_experiments/finetuned_models/scotus/EleutherAI_gpt-j-6B/Strategy_1/sub_strategy_0/ZeRO3_epoch_2_final/pytorch_model.bin
 EleutherAI/gpt-j-6B Model Loaded from directory LEGAL-P_E/SIGIR_experiments/finetuned_models/scotus/EleutherAI_gpt-j-6B/Strategy_1/sub_strategy_0/ZeRO3_epoch_2_final/pytorch_model.bin
DistributedDataParallel(
  (module): GPTJForSequenceClassification(
    (transformer): GPTJModel(
      (wte): Embedding(50400, 4096)
      (drop): Dropout(p=0.0, inplace=False)
      (h): ModuleList(
        (0-27): 28 x GPTJBlock(
          (ln_1): LayerNorm((4096,), eps=1e-05, elementwise_affine=True)
          (attn): GPTJAttention(
            (attn_dropout): Dropout(p=0.0, inplace=False)
            (resid_dropout): Dropout(p=0.0, inplace=False)
            (k_proj): Linear(in_features=4096, out_features=4096, bias=False)
            (v_proj): Linear(in_features=4096, out_features=4096, bias=False)
            (q_proj): Linear(in_features=4096, out_features=4096, bias=False)
            (out_proj): Linear(in_features=4096, out_features=4096, bias=False)
          )
          (mlp): GPTJMLP(
            (fc_in): Linear(in_features=4096, out_features=16384, bias=True)
            (fc_out): Linear(in_features=16384, out_features=4096, bias=True)
            (act): NewGELUActivation()
            (dropout): Dropout(p=0.0, inplace=False)
          )
        )
      )
      (ln_f): LayerNorm((4096,), eps=1e-05, elementwise_affine=True)
    )
    (score): Linear(in_features=4096, out_features=13, bias=False)
  )
)


 EleutherAI/gpt-j-6B Model Loaded from directory LEGAL-P_E/SIGIR_experiments/finetuned_models/scotus/EleutherAI_gpt-j-6B/Strategy_1/sub_strategy_0/ZeRO3_epoch_2_final/pytorch_model.bin
DistributedDataParallel(
  (module): GPTJForSequenceClassification(
    (transformer): GPTJModel(
      (wte): Embedding(50400, 4096)
      (drop): Dropout(p=0.0, inplace=False)
      (h): ModuleList(
        (0-27): 28 x GPTJBlock(
          (ln_1): LayerNorm((4096,), eps=1e-05, elementwise_affine=True)
          (attn): GPTJAttention(
            (attn_dropout): Dropout(p=0.0, inplace=False)
            (resid_dropout): Dropout(p=0.0, inplace=False)
            (k_proj): Linear(in_features=4096, out_features=4096, bias=False)
            (v_proj): Linear(in_features=4096, out_features=4096, bias=False)
            (q_proj): Linear(in_features=4096, out_features=4096, bias=False)
            (out_proj): Linear(in_features=4096, out_features=4096, bias=False)
          )
          (mlp): GPTJMLP(
            (fc_in): Linear(in_features=4096, out_features=16384, bias=True)
            (fc_out): Linear(in_features=16384, out_features=4096, bias=True)
            (act): NewGELUActivation()
            (dropout): Dropout(p=0.0, inplace=False)
          )
        )
      )
      (ln_f): LayerNorm((4096,), eps=1e-05, elementwise_affine=True)
    )
    (score): Linear(in_features=4096, out_features=13, bias=False)
  )
)


 EleutherAI/gpt-j-6B Model Loaded from directory LEGAL-P_E/SIGIR_experiments/finetuned_models/scotus/EleutherAI_gpt-j-6B/Strategy_1/sub_strategy_0/ZeRO3_epoch_2_final/pytorch_model.bin
 EleutherAI/gpt-j-6B Model Loaded from directory LEGAL-P_E/SIGIR_experiments/finetuned_models/scotus/EleutherAI_gpt-j-6B/Strategy_1/sub_strategy_0/ZeRO3_epoch_2_final/pytorch_model.bin
DistributedDataParallel(
  (module): GPTJForSequenceClassification(
    (transformer): GPTJModel(
      (wte): Embedding(50400, 4096)
      (drop): Dropout(p=0.0, inplace=False)
      (h): ModuleList(
        (0-27): 28 x GPTJBlock(
          (ln_1): LayerNorm((4096,), eps=1e-05, elementwise_affine=True)
          (attn): GPTJAttention(
            (attn_dropout): Dropout(p=0.0, inplace=False)
            (resid_dropout): Dropout(p=0.0, inplace=False)
            (k_proj): Linear(in_features=4096, out_features=4096, bias=False)
            (v_proj): Linear(in_features=4096, out_features=4096, bias=False)
            (q_proj): Linear(in_features=4096, out_features=4096, bias=False)
            (out_proj): Linear(in_features=4096, out_features=4096, bias=False)
          )
          (mlp): GPTJMLP(
            (fc_in): Linear(in_features=4096, out_features=16384, bias=True)
            (fc_out): Linear(in_features=16384, out_features=4096, bias=True)
            (act): NewGELUActivation()
            (dropout): Dropout(p=0.0, inplace=False)
          )
        )
      )
      (ln_f): LayerNorm((4096,), eps=1e-05, elementwise_affine=True)
    )
    (score): Linear(in_features=4096, out_features=13, bias=False)
  )
)


 EleutherAI/gpt-j-6B Model Loaded from directory LEGAL-P_E/SIGIR_experiments/finetuned_models/scotus/EleutherAI_gpt-j-6B/Strategy_1/sub_strategy_0/ZeRO3_epoch_2_final/pytorch_model.bin


Extraction for scotus complete!

All extraction complete!


Extraction for scotus complete!

All extraction complete!


Extraction for scotus complete!

All extraction complete!
…
