…
Some weights of GPTNeoForSequenceClassification were not initialized from the model checkpoint at /gpfsdswork/dataset/HuggingFace_Models/EleutherAI/gpt-neo-2.7B and are newly initialized: ['score.weight']
You should probably TRAIN this model on a down-stream task to be able to use it for predictions and inference.
Some weights of GPTNeoForSequenceClassification were not initialized from the model checkpoint at /gpfsdswork/dataset/HuggingFace_Models/EleutherAI/gpt-neo-2.7B and are newly initialized: ['score.weight']
You should probably TRAIN this model on a down-stream task to be able to use it for predictions and inference.
DistributedDataParallel(
  (module): GPTNeoForSequenceClassification(
    (transformer): GPTNeoModel(
      (wte): Embedding(50257, 2560)
      (wpe): Embedding(2048, 2560)
      (drop): Dropout(p=0.0, inplace=False)
      (h): ModuleList(
        (0-31): 32 x GPTNeoBlock(
          (ln_1): LayerNorm((2560,), eps=1e-05, elementwise_affine=True)
          (attn): GPTNeoAttention(
            (attention): GPTNeoSelfAttention(
              (attn_dropout): Dropout(p=0.0, inplace=False)
              (resid_dropout): Dropout(p=0.0, inplace=False)
              (k_proj): Linear(in_features=2560, out_features=2560, bias=False)
              (v_proj): Linear(in_features=2560, out_features=2560, bias=False)
              (q_proj): Linear(in_features=2560, out_features=2560, bias=False)
              (out_proj): Linear(in_features=2560, out_features=2560, bias=True)
            )
          )
          (ln_2): LayerNorm((2560,), eps=1e-05, elementwise_affine=True)
          (mlp): GPTNeoMLP(
            (c_fc): Linear(in_features=2560, out_features=10240, bias=True)
            (c_proj): Linear(in_features=10240, out_features=2560, bias=True)
            (act): NewGELUActivation()
            (dropout): Dropout(p=0.0, inplace=False)
          )
        )
      )
      (ln_f): LayerNorm((2560,), eps=1e-05, elementwise_affine=True)
    )
    (score): Linear(in_features=2560, out_features=13, bias=False)
  )
)

 EleutherAI/gpt-neo-2.7B Model Loaded from directory LEGAL-P_E/SIGIR_experiments/finetuned_models/scotus/EleutherAI_gpt-neo-2.7B/Strategy_0/sub_strategy_0/Training_data_EleutherAI_gpt-neo-2.7B/chunks_with_100_overlap_and_512_input-length/tuned_model/ZeRO3_epoch_2__final/pytorch_model.bin
DistributedDataParallel(
  (module): GPTNeoForSequenceClassification(
    (transformer): GPTNeoModel(
      (wte): Embedding(50257, 2560)
      (wpe): Embedding(2048, 2560)
      (drop): Dropout(p=0.0, inplace=False)
      (h): ModuleList(
        (0-31): 32 x GPTNeoBlock(
          (ln_1): LayerNorm((2560,), eps=1e-05, elementwise_affine=True)
          (attn): GPTNeoAttention(
            (attention): GPTNeoSelfAttention(
              (attn_dropout): Dropout(p=0.0, inplace=False)
              (resid_dropout): Dropout(p=0.0, inplace=False)
              (k_proj): Linear(in_features=2560, out_features=2560, bias=False)
              (v_proj): Linear(in_features=2560, out_features=2560, bias=False)
              (q_proj): Linear(in_features=2560, out_features=2560, bias=False)
              (out_proj): Linear(in_features=2560, out_features=2560, bias=True)
            )
          )
          (ln_2): LayerNorm((2560,), eps=1e-05, elementwise_affine=True)
          (mlp): GPTNeoMLP(
            (c_fc): Linear(in_features=2560, out_features=10240, bias=True)
            (c_proj): Linear(in_features=10240, out_features=2560, bias=True)
            (act): NewGELUActivation()
            (dropout): Dropout(p=0.0, inplace=False)
          )
        )
      )
      (ln_f): LayerNorm((2560,), eps=1e-05, elementwise_affine=True)
    )
    (score): Linear(in_features=2560, out_features=13, bias=False)
  )
)

 EleutherAI/gpt-neo-2.7B Model Loaded from directory LEGAL-P_E/SIGIR_experiments/finetuned_models/scotus/EleutherAI_gpt-neo-2.7B/Strategy_0/sub_strategy_0/Training_data_EleutherAI_gpt-neo-2.7B/chunks_with_100_overlap_and_512_input-length/tuned_model/ZeRO3_epoch_2__final/pytorch_model.bin
  0%|          | 0/5000 [00:00<?, ?it/s]  0%|          | 0/5000 [00:00<?, ?it/s]DistributedDataParallel(
  (module): GPTNeoForSequenceClassification(
    (transformer): GPTNeoModel(
      (wte): Embedding(50257, 2560)
      (wpe): Embedding(2048, 2560)
      (drop): Dropout(p=0.0, inplace=False)
      (h): ModuleList(
        (0-31): 32 x GPTNeoBlock(
          (ln_1): LayerNorm((2560,), eps=1e-05, elementwise_affine=True)
          (attn): GPTNeoAttention(
            (attention): GPTNeoSelfAttention(
              (attn_dropout): Dropout(p=0.0, inplace=False)
              (resid_dropout): Dropout(p=0.0, inplace=False)
              (k_proj): Linear(in_features=2560, out_features=2560, bias=False)
              (v_proj): Linear(in_features=2560, out_features=2560, bias=False)
              (q_proj): Linear(in_features=2560, out_features=2560, bias=False)
              (out_proj): Linear(in_features=2560, out_features=2560, bias=True)
            )
          )
          (ln_2): LayerNorm((2560,), eps=1e-05, elementwise_affine=True)
          (mlp): GPTNeoMLP(
            (c_fc): Linear(in_features=2560, out_features=10240, bias=True)
            (c_proj): Linear(in_features=10240, out_features=2560, bias=True)
            (act): NewGELUActivation()
            (dropout): Dropout(p=0.0, inplace=False)
          )
        )
      )
      (ln_f): LayerNorm((2560,), eps=1e-05, elementwise_affine=True)
    )
    (score): Linear(in_features=2560, out_features=13, bias=False)
  )
)
DistributedDataParallel(
  (module): GPTNeoForSequenceClassification(
    (transformer): GPTNeoModel(
      (wte): Embedding(50257, 2560)
      (wpe): Embedding(2048, 2560)
      (drop): Dropout(p=0.0, inplace=False)
      (h): ModuleList(
        (0-31): 32 x GPTNeoBlock(
          (ln_1): LayerNorm((2560,), eps=1e-05, elementwise_affine=True)
          (attn): GPTNeoAttention(
            (attention): GPTNeoSelfAttention(
              (attn_dropout): Dropout(p=0.0, inplace=False)
              (resid_dropout): Dropout(p=0.0, inplace=False)
              (k_proj): Linear(in_features=2560, out_features=2560, bias=False)
              (v_proj): Linear(in_features=2560, out_features=2560, bias=False)
              (q_proj): Linear(in_features=2560, out_features=2560, bias=False)
              (out_proj): Linear(in_features=2560, out_features=2560, bias=True)
            )
          )
          (ln_2): LayerNorm((2560,), eps=1e-05, elementwise_affine=True)
          (mlp): GPTNeoMLP(
            (c_fc): Linear(in_features=2560, out_features=10240, bias=True)
            (c_proj): Linear(in_features=10240, out_features=2560, bias=True)
            (act): NewGELUActivation()
            (dropout): Dropout(p=0.0, inplace=False)
          )
        )
      )
      (ln_f): LayerNorm((2560,), eps=1e-05, elementwise_affine=True)
    )
    (score): Linear(in_features=2560, out_features=13, bias=False)
  )
)
 EleutherAI/gpt-neo-2.7B Model Loaded from directory LEGAL-P_E/SIGIR_experiments/finetuned_models/scotus/EleutherAI_gpt-neo-2.7B/Strategy_0/sub_strategy_0/Training_data_EleutherAI_gpt-neo-2.7B/chunks_with_100_overlap_and_512_input-length/tuned_model/ZeRO3_epoch_2__final/pytorch_model.bin


 EleutherAI/gpt-neo-2.7B Model Loaded from directory LEGAL-P_E/SIGIR_experiments/finetuned_models/scotus/EleutherAI_gpt-neo-2.7B/Strategy_0/sub_strategy_0/Training_data_EleutherAI_gpt-neo-2.7B/chunks_with_100_overlap_and_512_input-length/tuned_model/ZeRO3_epoch_2__final/pytorch_model.bin
DistributedDataParallel(
  (module): GPTNeoForSequenceClassification(
    (transformer): GPTNeoModel(
      (wte): Embedding(50257, 2560)
      (wpe): Embedding(2048, 2560)
      (drop): Dropout(p=0.0, inplace=False)
      (h): ModuleList(
        (0-31): 32 x GPTNeoBlock(
          (ln_1): LayerNorm((2560,), eps=1e-05, elementwise_affine=True)
          (attn): GPTNeoAttention(
            (attention): GPTNeoSelfAttention(
              (attn_dropout): Dropout(p=0.0, inplace=False)
              (resid_dropout): Dropout(p=0.0, inplace=False)
              (k_proj): Linear(in_features=2560, out_features=2560, bias=False)
              (v_proj): Linear(in_features=2560, out_features=2560, bias=False)
              (q_proj): Linear(in_features=2560, out_features=2560, bias=False)
              (out_proj): Linear(in_features=2560, out_features=2560, bias=True)
            )
          )
          (ln_2): LayerNorm((2560,), eps=1e-05, elementwise_affine=True)
          (mlp): GPTNeoMLP(
            (c_fc): Linear(in_features=2560, out_features=10240, bias=True)
            (c_proj): Linear(in_features=10240, out_features=2560, bias=True)
            (act): NewGELUActivation()
            (dropout): Dropout(p=0.0, inplace=False)
          )
        )
      )
      (ln_f): LayerNorm((2560,), eps=1e-05, elementwise_affine=True)
    )
    (score): Linear(in_features=2560, out_features=13, bias=False)
  )
)DistributedDataParallel(
  (module): GPTNeoForSequenceClassification(
    (transformer): GPTNeoModel(
      (wte): Embedding(50257, 2560)
      (wpe): Embedding(2048, 2560)
      (drop): Dropout(p=0.0, inplace=False)
      (h): ModuleList(
        (0-31): 32 x GPTNeoBlock(
          (ln_1): LayerNorm((2560,), eps=1e-05, elementwise_affine=True)
          (attn): GPTNeoAttention(
            (attention): GPTNeoSelfAttention(
              (attn_dropout): Dropout(p=0.0, inplace=False)
              (resid_dropout): Dropout(p=0.0, inplace=False)
              (k_proj): Linear(in_features=2560, out_features=2560, bias=False)
              (v_proj): Linear(in_features=2560, out_features=2560, bias=False)
              (q_proj): Linear(in_features=2560, out_features=2560, bias=False)
              (out_proj): Linear(in_features=2560, out_features=2560, bias=True)
            )
          )
          (ln_2): LayerNorm((2560,), eps=1e-05, elementwise_affine=True)
          (mlp): GPTNeoMLP(
            (c_fc): Linear(in_features=2560, out_features=10240, bias=True)
            (c_proj): Linear(in_features=10240, out_features=2560, bias=True)
            (act): NewGELUActivation()
            (dropout): Dropout(p=0.0, inplace=False)
          )
        )
      )
      (ln_f): LayerNorm((2560,), eps=1e-05, elementwise_affine=True)
    )
    (score): Linear(in_features=2560, out_features=13, bias=False)
  )
)


 EleutherAI/gpt-neo-2.7B Model Loaded from directory LEGAL-P_E/SIGIR_experiments/finetuned_models/scotus/EleutherAI_gpt-neo-2.7B/Strategy_0/sub_strategy_0/Training_data_EleutherAI_gpt-neo-2.7B/chunks_with_100_overlap_and_512_input-length/tuned_model/ZeRO3_epoch_2__final/pytorch_model.bin
 EleutherAI/gpt-neo-2.7B Model Loaded from directory LEGAL-P_E/SIGIR_experiments/finetuned_models/scotus/EleutherAI_gpt-neo-2.7B/Strategy_0/sub_strategy_0/Training_data_EleutherAI_gpt-neo-2.7B/chunks_with_100_overlap_and_512_input-length/tuned_model/ZeRO3_epoch_2__final/pytorch_model.bin
…
